李宏毅机器学习2021/hw/models/model.pth (torch, 34975 bytes, 5 tensors)

net.0.weight f4 [64, 93]
000000 51 73 7d 3d c4 c9 aa 3b bd a8 0f bd a1 18 a0 bc
       0.061877552 0.0052120406 -0.03507303 -0.019542994
000010 d8 e1 a7 3c e7 67 80 3d b2 50 d4 3c b0 56 86 bd
       0.020493433 0.06269818 0.025917385 -0.06559503
000020 ea ad d1 3d bf 80 26 bc ed 9c ae 3d 05 54 91 3d
       0.102382496 -0.010162531 0.08526025 0.070961036
000030 b5 0f 8b bd 86 11 80 3c 4e b8 25 3d 92 f3 1e bc
       -0.06790105 0.015633356 0.04045897 -0.009701626
000040 fd 66 02 3d 55 2a bc 3b 3a 40 8d 3d d9 bd 1e 3d
       0.0318365 0.005742351 0.06897016 0.03875527
000050 fb 0f e7 3d bb 15 ff 3d c0 be e4 bc 8b 80 51 3c
       0.11282345 0.12455317 -0.027922988 0.012786995
000060 86 cc 94 bd 39 0e 8e 3d 52 d1 69 bc 6e 87 ad 3c
       -0.07265572 0.069363065 -0.014271097 0.021182742
000070 99 fd 34 bd 89 df 82 bd 73 a4 c8 3c 04 92 8a 3d
       -0.044187162 -0.06390292 0.024492478 0.067661315
000080 91 8e 7d bd 5b 76 da bd ce c6 54 bc 0f c0 53 bd
       -0.06190354 -0.10667106 -0.012986852 -0.051696833
000090 43 4a fe 3d 89 f0 60 b7 87 8b 6d bd 06 c8 1c bc
       0.12416508 -1.3407444e-05 -0.05799439 -0.009569174
0000a0 d8 68 7f 3d 3b 3f e8 3d 18 ff 32 bd 58 cc b0 bd
       0.062355846 0.11340185 -0.043700308 -0.086327255
0000b0 fe 67 99 bd 9e d0 b8 bc 91 d9 9f bc c3 2a 17 bd
       -0.07490538 -0.022560414 -0.019512923 -0.036906015
0000c0 57 65 7c bd 25 8f 8f bd b6 af 93 bd 6c 3e cb bd
       -0.061620083 -0.070097245 -0.072112486 -0.099240154
0000d0 83 c4 d4 bc f6 f5 0a 3d 66 bb e5 3c 62 f3 a3 bd
       -0.02597261 0.033925973 0.02804346 -0.08005406
0000e0 5b 22 20 3d f7 b5 19 3e 50 1c 71 bd 1c 95 10 be
       0.039095264 0.1501082 -0.05886489 -0.1411938
0000f0 66 df 2e bd 59 a7 b2 bd 81 a4 2d bd 2e 32 65 bd
       -0.042693518 -0.08723325 -0.04239321 -0.05595606
000100 01 9f d0 3d 88 fd ce bd 92 f5 ca 3d fb 7a cf bd
       0.101865776 -0.10106951 0.0991012 -0.101308785
000110 aa 96 c9 3d db 82 23 be 7c ce 07 3d 50 1f f5 bd
       0.0984319 -0.15967886 0.033155903 -0.11968863
000120 0f 52 8e 3d b9 1e 9e 3d c8 93 95 bc 52 65 07 3e
       0.06949245 0.07720704 -0.018258944 0.13222244
000130 7d 12 89 3d 2c 2c 05 be 8d 47 03 3d be c4 b9 3c
       0.066929795 -0.13005131 0.032050658 0.022676822
000140 5f 30 7b bd f0 a2 cb bd d0 f9 8e bd 4c 64 ef bd
       -0.061325427 -0.09943187 -0.06981242 -0.11689052
000150 09 9c 62 bb 17 c1 4b bc c8 8d 8c bc 8d d9 84 bc
       -0.0034577867 -0.012436173 -0.01715745 -0.016217018
000160 8d 0c e0 3c 14 60 91 bd 6d 71 ca bb 55 74 8e 3d
       0.027349735 -0.070984036 -0.006178072 0.06955782
000170 98 49 22 3e f8 2b 52 bd e1 b8 3f be bf 5a db 3c
       0.15848386 -0.051311463 -0.1872287 0.02677667
000180 f3 6b 7e bc 4e 3a 5f 3d 28 47 5b bd 3c 50 de 3d
       -0.015528667 0.054498963 -0.053534657 0.10855147
000190 28 52 9a bd 45 72 bb bd a1 9c 7d 3c a5 84 7f bd
       -0.07535201 -0.091526546 0.015479238 -0.06238236
0001a0 0b e9 8f bd 10 5d ec 3c d2 f7 0c 3e 36 98 c4 bb
       -0.07026871 0.02885297 0.13766411 -0.0059995903
0001b0 9a 8d 66 bd 8e 56 51 bd 68 c3 2e bc b7 a0 8e bc
       -0.056287386 -0.051107936 -0.010666706 -0.01741062
0001c0 d8 8a e4 3c 1c 9a 25 3e c9 15 fa 3d de 51 a4 3c
       0.027898237 0.1617207 0.122111864 0.020058569
0001d0 99 16 f4 3d 97 9e de 3d 1c 94 60 3d ae 2b 0c 3d
       0.11918373 0.10870092 0.054828748 0.034221344
0001e0 b7 8c ea 3d 20 31 5a 3d f8 03 3e bc 24 64 3f bd
       0.114526205 0.053269506 -0.011597626 -0.04672636
0001f0 ce fd 69 3b dd 23 82 bd a9 84 18 bc 14 1e c5 3d
       0.0035704258 -0.06354497 -0.009308972 0.096248776
000200 a0 85 83 3d 4a 4d 53 3d 11 40 f8 bd c7 f8 75 bd
       0.06421971 0.05158738 -0.12121595 -0.060051706
000210 c0 f0 63 3c 11 8f 29 3d c2 90 0f 3d a2 f8 8e bb
       0.01391238 0.041396204 0.03505016 -0.0043631354
000220 51 4e 49 bd af ac 51 bb b9 16 2b bd 0a fd a6 3c
       -0.049146954 -0.0031993797 -0.041769717 0.02038433
000230 78 03 00 bd 9c 0f 25 bd 32 42 67 bd 21 9f 0b bc
       -0.031253308 -0.04029809 -0.056459613 -0.008521826
000240 7f 4c e4 3d b7 41 02 be f9 17 66 bd 7c bf 0b bd
       0.11147403 -0.1272038 -0.056175206 -0.03411816
000250 dd b3 36 bd 48 10 e9 bd 8f 38 ba 3c 59 f5 0c 3e
       -0.044605125 -0.113800585 0.022732047 0.13765468
000260 77 f6 04 bd 6f 88 f8 bc 2f 36 64 3d 84 ef 73 3d
       -0.03246161 -0.030338494 0.055715736 0.05955459
000270 b2 33 df bd 26 f6 a7 3d d2 a7 e9 bc b7 1b 0c bc
       -0.10898532 0.08201246 -0.028522406 -0.00855153
000280 35 76 1e be a8 a2 53 bb 91 45 53 bd 07 23 91 3c
       -0.1547478 -0.0032292996 -0.051580016 0.017716898
000290 3d 9f d7 3d 2b 56 e5 3d 00 c9 1e bc eb 8f 04 be
       0.10528419 0.11198076 -0.009691477 -0.12945525
0002a0 70 23 cc 3e cf 9a b3 bc 4d c8 98 3d 72 be 37 3d
       0.39870787 -0.021924404 0.07460079 0.044859357
0002b0 26 be 16 bd c6 24 2d 3d b3 a7 48 be 2c 08 f4 3b
       -0.036802433 0.042271398 -0.19595222 0.007447263
0002c0 b4 46 89 bc d5 84 47 3d 58 37 dc 3b 3c 86 42 3d
       -0.016757347 0.048710663 0.0067204647 0.047491297
0002d0 92 1f 52 3e 54 46 76 ba 35 fa bd 3d 3e 5f 23 3c
       0.20519856 -0.0009394635 0.09276239 0.009971438
0002e0 5e 01 bf 3d 4b 3b 67 be e6 6a 39 bd a3 95 39 be
       0.09326433 -0.22581212 -0.045267962 -0.18123488
0002f0 79 3f 92 bd 9d c8 74 bd c7 aa 16 bd 05 2d 0e 3e
       -0.07141013 -0.059761632 -0.03678396 0.13884361
000300 53 35 e3 3c cf 93 fc 3c 80 7e 90 ba d6 a4 87 3d
       0.027735388 0.0308322 -0.0011024028 0.06623237
000310 d8 08 8d 3c 83 82 a7 bd 56 bd 85 3c 8e 7a 64 bd
       0.017216131 -0.0817919 0.016325634 -0.05578094
000320 9b 2b 2b bd 8d 1c 05 3e 30 f9 9e 3d e8 af d0 bd
       -0.041789632 0.12999173 0.077623725 -0.101898015
000330 8b 11 10 3b 44 97 82 3b f2 68 e4 bc ff 18 2f 3e
       0.0021983113 0.0039853174 -0.027882073 0.17099379
000340 ba ff 85 3d 46 46 aa bd e1 36 a3 bd a2 ac a3 3d
       0.065429166 -0.08314185 -0.07969452 0.079919115
000350 04 3e bf bd d8 4b 83 3d 4c 67 88 bb 64 09 10 3d
       -0.093380004 0.064109504 -0.0041627046 0.035165206
000360 15 93 9b 3b 08 28 c9 bc ef e2 99 3a eb 23 9d 3d
       0.004747758 -0.024555221 0.0011740605 0.076728664
000370 17 a4 53 bd dd 20 ce bd 39 c2 82 bd b3 ef b0 bd
       -0.05167016 -0.10064862 -0.06384701 -0.08639469
000380 de 2a b1 3b a2 d6 1e 3d 40 e2 0c 3d e2 23 75 bd
       0.0054067215 0.03877891 0.034395456 -0.059848674
000390 0f 63 63 bd 08 65 c3 bd 8f 2f 21 be fa 58 88 bc
       -0.05551439 -0.095407546 -0.15740798 -0.01664399
0003a0 3d bc 78 3d d7 51 e9 3d 12 e6 c7 3c 12 fa 5d bd
       0.060726393 0.11392563 0.024401698 -0.054193564
0003b0 33 00 f2 3c 5b f2 8d bd c3 85 19 3e dd 93 29 be
       0.02954111 -0.06930991 0.14992432 -0.16560312
0003c0 1b a6 0c 3c 73 0d 92 bd 2e 56 e3 bc 20 e6 7c bb
       0.0085845245 -0.071314715 -0.027751055 -0.0038589314
0003d0 a2 bf dc bc 64 61 14 bd 5a 4c 95 bb b5 fc a6 3a
       -0.026946846 -0.03622569 -0.004556221 0.0012740107
0003e0 bc f1 01 be d1 12 d9 ba 6d 71 fb 3d 36 c0 c6 3d
       -0.1268987 -0.0016561394 0.122774936 0.0970463
0003f0 76 8d d5 bc e5 77 d4 bd 93 14 5d 3c c0 5c d9 3d
       -0.02606843 -0.103744306 0.013493675 0.10613394

net.0.bias f4 [64]
000000 51 1e 3b 3e 70 e9 17 3f 68 c1 ab 3d 85 3e 9f bd
       0.18273284 0.5934057 0.08386499 -0.077755965
000010 f0 1d ed 3c 3c 6d 9e be 9c a2 8c 3b 5b 8c 34 3c
       0.02894494 -0.30942714 0.0042918455 0.0110197915
000020 5a 19 b3 3d 8e 63 f3 3e 9a c8 8f 3e 47 71 65 3e
       0.0874507 0.47536892 0.28082734 0.22406493
000030 40 a4 d7 bd 5d 3a 26 3f 54 49 bd bd 56 f8 42 3e
       -0.10529375 0.64932805 -0.09242502 0.19040045
000040 50 03 94 3e 95 cb 11 3e c7 8c 91 3d b4 3c 00 3d
       0.28908777 0.14237817 0.07106929 0.03130789
000050 e1 01 15 3e 31 d0 87 bd 3e 59 4b bd 87 60 7a 3a
       0.14551498 -0.06631506 -0.049645655 0.0009551127
000060 1d f5 37 bd 98 74 32 bc 3e f7 99 bd 5a 11 28 3e
       -0.044911493 -0.010892056 -0.07517861 0.16412869
000070 c4 ca 08 bd 04 9e ce bd 54 01 49 3e e4 24 e8 3d
       -0.033396497 -0.10088733 0.19629413 0.11335161
000080 9f d1 51 3e 44 f1 8c 3e 10 91 7b bd a8 72 e8 bd
       0.2049012 0.2752782 -0.06141764 -0.11349994
000090 60 36 01 3c 06 ba c7 3c dc 52 58 3e fe a5 40 3e
       0.007886499 0.024380695 0.21125358 0.18813321
0000a0 0a 29 02 3d bb 3a 58 3e cf 64 59 3c 3f 30 54 bd
       0.03177742 0.21116154 0.013268664 -0.051803824
0000b0 bb d4 b6 3e 56 94 2f be 1c d8 35 bd 36 9e 6d 3d
       0.35709175 -0.1714643 -0.04439555 0.05801221
0000c0 94 42 9a bd 57 4c c5 bd 63 a3 e3 bc 82 13 ae 3e
       -0.0753223 -0.09633701 -0.02778787 0.33999258
0000d0 c8 31 f3 3e d9 92 c8 3e 87 3d 33 3d 31 3f ac 3e
       0.47498918 0.39174536 0.04375985 0.3364196
0000e0 de 59 c2 3c bd fc 9f bc 2f 32 19 be 6e e6 98 3e
       0.023724493 -0.019529695 -0.1496055 0.29863304
0000f0 af 4b 0a 3e f3 8c 78 3e 43 97 94 3c 3e 2f 3a be
       0.13505433 0.24272518 0.018138533 -0.18182084

net.2.weight f4 [32, 64]
000000 0b 58 33 3d f9 c0 ef 3d f6 f4 3f 3c b9 5a 24 bd
       0.043785136 0.117067285 0.011716118 -0.040125582
000010 a7 5b 8a bd 75 b7 01 3e c1 15 b3 ba 12 d2 82 bd
       -0.067557625 0.1266764 -0.0013663099 -0.06387724
000020 7d a6 8a bd da 2b 54 bd e0 70 c9 bd 24 54 ec 3d
       -0.06770036 -0.051799633 -0.09835982 0.11539486
000030 79 d9 3e bd e6 fe 28 3e 6e c5 c4 bd e7 31 d3 3d
       -0.046594117 0.16503486 -0.09607969 0.103122525
000040 69 e6 22 be a2 11 86 3d 14 97 b1 bd cf 8d f7 bd
       -0.15908207 0.06546332 -0.08671394 -0.12087595
000050 9c d4 81 3d 10 ec ca 3c e5 01 3b bd 89 19 b5 bd
       0.0633938 0.024770766 -0.045656104 -0.08842761
000060 a3 6f bc bc fc b9 d4 3d 47 2e d5 3d 10 08 f8 3d
       -0.023002451 0.10387036 0.10409217 0.12110913
000070 72 a2 bf bd df 30 0c bd 6e f1 72 3b 27 9d bb 3d
       -0.09357156 -0.034226295 0.0037070173 0.09160834
000080 ae 64 39 bc ab b5 72 3d 32 c6 08 3d 4e bc 01 be
       -0.011315508 0.059255283 0.03339214 -0.12669489
000090 80 7c a2 bd c5 8c 38 bd a2 67 88 3d 92 0d 04 3e
       -0.07933903 -0.045056123 0.066603914 0.12895802
0000a0 66 ed e6 bd 43 fa 0c be 7e 67 76 bd ae 94 92 bd
       -0.11275749 -0.13767342 -0.06015729 -0.07157265
0000b0 82 1a 97 bd b7 a8 65 3d 9a f5 0a 3d 75 55 c7 3d
       -0.07378103 0.056069102 0.03392563 0.097330965
0000c0 cf d2 e5 3d 97 29 f8 3d 2f fa 01 3e 96 d8 9d 3d
       0.11221849 0.12117308 0.12693094 0.07707326
0000d0 57 6b 8c bd c8 ce 29 bd 64 f2 0e 3e 2c 14 67 3c
       -0.06856411 -0.041456968 0.13959652 0.01410393
0000e0 1e 41 f2 bd d4 71 ab bd c5 c8 96 3d d4 59 a7 3c
       -0.11828826 -0.0837132 0.073625125 0.020428576
0000f0 3a ec e9 bd a4 bd 8d 3d 2d 20 b9 bd 6d ee 77 3b
       -0.1142201 0.06920937 -0.0903934 0.0037831322
000100 e5 38 38 bd 87 15 92 bd f1 fa 2c 3c 4e 62 6e bd
       -0.044976134 -0.07133012 0.010557876 -0.05819922
000110 90 a1 d4 bc 2d 05 e5 bc 68 60 f0 bc 4c f5 a2 bb
       -0.025955945 -0.02795657 -0.029342845 -0.0049730893
000120 69 05 d3 3c 52 32 c0 bd 1f 3f 8c bd f2 36 fb bd
       0.025759416 -0.09384598 -0.06847977 -0.12266339
000130 2b 53 9d 3c 08 d3 7b bd 6a 7a c7 3b 0b 85 12 be
       0.019204697 -0.061480552 0.006087591 -0.14308564
000140 f0 68 1f be cc c2 63 3d d4 15 b6 3d 38 2e ed bb
       -0.15567374 0.055605695 0.08890882 -0.0072381757
000150 07 bd 5d bd e0 72 73 3d e8 52 6a bd 78 7b be 3d
       -0.05413535 0.059435725 -0.05720797 0.093008935
000160 42 c8 96 3d 5c 72 fb bd f0 c7 c2 bd 1d fc cd bb
       0.07362415 -0.12277672 -0.09510791 -0.0062861578
000170 71 19 39 3d 27 f1 90 bc e2 39 0c bd 2a 7c 4a 3c
       0.04519028 -0.017693115 -0.03423489 0.012358705
000180 36 1c 9b 3c 90 e4 8c bc 2f 04 06 3c 01 62 96 3c
       0.01893435 -0.01719883 0.008179708 0.018357279
000190 8f e0 2f 3d 76 a3 02 be c0 c5 80 bd 0c ef 14 be
       0.042938765 -0.12757668 -0.06287718 -0.14544314
0001a0 60 c9 9b bd 90 55 26 3d 64 70 b2 bc 7f ed 5d 3d
       -0.076067686 0.040608943 -0.021782108 0.054181572
0001b0 a6 6e f6 3c 5b e8 89 3d c5 88 0c be cb a2 a5 bd
       0.030082058 0.067337714 -0.13724048 -0.08087691
0001c0 15 cc 3f 3d b6 58 06 be 53 1f 27 3d 03 78 dd 3c
       0.046825487 -0.13119778 0.040801357 0.027034765
0001d0 eb 62 1e be 43 6e 1d be 30 8c 62 bd 05 ed 7f 3c
       -0.15467422 -0.15374093 -0.055309474 0.015620475
0001e0 b0 8f 53 bd 44 6b f4 bd 17 45 e5 bd 7b 39 fc 3c
       -0.051650703 -0.11934522 -0.111948185 0.030789128
0001f0 62 a2 9a bb 69 8c b3 bd f3 07 9b 3d c4 d8 70 3c
       -0.0047190646 -0.087670155 0.075698756 0.014700118
000200 22 9a 8d 3d ac 44 3a bd 04 2d 95 3d 71 d1 d6 bd
       0.06914164 -0.045475647 0.07283977 -0.104891665
000210 b2 15 63 3d 04 44 13 3e 9c 0a 2b bd a2 de 9d bd
       0.055440612 0.14381415 -0.041758165 -0.077084795
000220 0d 2c 60 3e 01 3f 26 bd 55 3d 14 3e ca 3f c3 3d
       0.21891804 -0.04058743 0.14476521 0.09533651
000230 bd 73 24 be 91 43 d3 bc d5 bc 31 3c 57 c2 07 bc
       -0.16059776 -0.025789054 0.010848244 -0.00828608
000240 3c af bd bd ce 8c 60 3e bd 2a c7 bc 52 d6 aa 3c
       -0.09261939 0.21928713 -0.024312371 0.020854149
000250 fe ee a9 bc 3b ee cc bd 01 c2 e3 3d 3c ae 9d 3d
       -0.020743843 -0.10006376 0.11120988 0.07699248
000260 3e 58 36 3d aa 5b b5 bd 54 b6 1b 3d 1f 15 ee 3b
       0.044517748 -0.08855374 0.03801568 0.0072657014
000270 e3 d0 d9 bd 66 e7 37 3d a3 42 11 bd df 4e 10 3e
       -0.10635545 0.044898413 -0.03546394 0.14092587
000280 21 fa cc 38 68 84 48 3e d8 7a 0b bb 5e 8e 1b be
       9.774068e-05 0.19581759 -0.0021282937 -0.15191028
000290 1d 60 18 be d6 fc c5 bd 2d f8 30 3c 3d 56 04 3e
       -0.14880414 -0.09667365 0.010801357 0.12923522
0002a0 0e 17 e7 3d 9a ee 26 3e 61 cc 16 3e 18 25 56 bd
       0.11283694 0.16301957 0.14726402 -0.05228147
0002b0 8f bf dc 3d 0c ec 18 bd 80 eb a4 3c 73 40 43 3e
       0.107787244 -0.037334487 0.020131826 0.19067554
0002c0 ca 12 f7 bd a4 b9 31 3e b6 c5 35 bc c9 92 a1 3c
       -0.120641306 0.17355973 -0.011094501 0.019723313
0002d0 b6 f0 4f 3e d5 15 b7 3d a2 b3 05 be a5 8e 9b 3d
       0.20306668 0.08939711 -0.13056806 0.07595567
0002e0 05 f5 92 3d c4 34 ed bc ab 5e 5f be 3c b7 7e 39
       0.0717564 -0.028955825 -0.21813457 0.00024291588
0002f0 5e c0 35 be 40 2d 90 b9 3e 06 99 3d 52 cf 9a bd
       -0.17749164 -0.00027499534 0.07471894 -0.075590745
000300 e5 33 12 bd c3 f0 8b bc 00 31 1b bc be 7c cd bd
       -0.03569402 -0.017082578 -0.009472132 -0.10033558
000310 6b de 85 3d 3e 52 db 3d 42 a5 9c bd 66 1a 90 3d
       0.065365635 0.10709046 -0.07648708 0.07036285
000320 36 ff 5f 3c b6 80 60 3d e2 f0 23 bd d2 b5 38 bd
       0.013671687 0.05481025 -0.040024646 -0.045095272
000330 59 cb 87 bc e0 b2 22 3e 94 02 12 be 70 f8 65 bd
       -0.016576456 0.15888548 -0.14258796 -0.05614513
000340 17 81 ee bd df 7e 03 bc c6 e2 5b 3d 99 38 b3 3d
       -0.11645716 -0.008025854 0.053683065 0.087510295
000350 c5 95 2d bd 93 41 70 bd c9 a6 d0 3d 71 2c 8b bd
       -0.04237916 -0.058656286 0.10188062 -0.06795586
000360 e4 7b 76 3d 26 f9 44 bd ca e2 66 3d eb 32 e2 bd
       0.060176745 -0.04808917 0.056368627 -0.11044868
000370 9d 69 4a bb 1b ab ba bc 9c 33 37 3c 3d 7f cd bd
       -0.0030885704 -0.022786668 0.011181738 -0.100340344
000380 21 32 45 3d b7 5e 00 3e 82 64 af bd e2 bf 1e 3d
       0.04814351 0.12536131 -0.08564092 0.038757212
000390 5e 0e fc 3c e5 a4 70 bb 81 cc dd bd 68 e8 97 3d
       0.03076857 -0.0036719379 -0.10830022 0.07417375
0003a0 3c ee ec 3d 86 c1 0b 3e 71 4b ed bc 51 40 55 bd
       0.11568877 0.13648042 -0.028966637 -0.05206329
0003b0 71 3c ef bd 35 78 a9 3d e2 3f e9 3d e2 8e 3c bd
       -0.1168145 0.08274881 0.11389138 -0.0460347
0003c0 42 b6 92 3d 67 e7 bf bd c4 ee 1e 3d ad 35 d9 3d
       0.07163669 -0.09370308 0.038801923 0.10605941
0003d0 82 4d eb bc 0c 5f a6 3d 29 b9 97 3d 79 41 5a 3c
       -0.028723482 0.081235975 0.07408363 0.013321274
0003e0 e5 3f b7 bd 0b eb 88 bc 56 ce 7e bd 46 c9 19 3d
       -0.08947734 -0.01671364 -0.062208496 0.037545465
0003f0 dd 77 39 be 96 ac 82 bd d9 47 58 3d 01 a9 93 bd
       -0.1811213 -0.063805744 0.052802894 -0.07209969

net.2.bias f4 [32]
000000 ca ad 15 3d 30 1b ad bd 47 3b e1 3e 08 7b 5e 3e
       0.03654269 -0.08452451 0.43990538 0.2172662
000010 f7 32 ef 3e 86 f8 dc 3e f8 63 55 bd a9 c8 d1 bd
       0.4671857 0.43158358 -0.05209729 -0.10243351
000020 59 20 bf bd e8 27 c4 3d 39 85 8a 3f 6f 51 28 3f
       -0.09332342 0.09577924 1.0821906 0.6574926
000030 01 6e 1c 3e 5a b0 d6 bd aa de 67 3f 42 0b 94 3e
       0.15276338 -0.10482855 0.90574133 0.2891484
000040 7a 4b 31 bd 25 d8 ca bd cb 12 72 3e b2 2d 17 3f
       -0.04328487 -0.099045075 0.23639981 0.590541
000050 9a 9b 82 3e 71 cb f6 bd 4a 7b 9e 3e 6f 3f 43 3e
       0.2550934 -0.12050522 0.30953437 0.19067167
000060 9a cf 24 3f 06 d9 28 3f 4d 6c 0a 3e 8e 03 8c 3f
       0.64379275 0.6595615 0.13517876 1.0938585
000070 29 5d 03 3f cf b4 bf 3b ad 32 cd bd 9c e5 02 be
       0.51314026 0.0058504115 -0.10019431 -0.12782902

net.4.weight f4 [1, 32]
000000 71 23 a1 3e 09 76 c8 3d 92 1f 1f 3f 7d 3e a0 3e
       0.31472352 0.097881384 0.6215755 0.31297675
000010 5a 5a 2b 3f fc c6 13 3f ca ab 69 bc 32 74 b1 3c
       0.6693474 0.577255 -0.014262149 0.021661852
000020 21 8c c8 3c 0a a6 38 3d cd 60 a1 3f 1a e2 52 3f
       0.024480881 0.045080222 1.2607666 0.82376254
000030 7d fe 10 3e 20 d8 9b be a8 53 90 3f b2 76 ad be
       0.1415958 -0.30438328 1.127553 -0.3387962
000040 5c ea 30 3e fd bb 22 3d e2 a9 77 3e d2 db 32 3f
       0.17276901 0.03973006 0.24185899 0.6986667
000050 86 e4 87 3e 17 07 cc bd a3 c2 ae 3e a6 61 8d 3e
       0.26541537 -0.0996229 0.3413287 0.27613562
000060 ae 4a 50 3f 1d 4a 40 3f c7 fe 2d 3e cd e7 a6 3f
       0.8136395 0.7511309 0.16991721 1.303949
000070 bc e7 d4 3e e6 5a d9 bc d8 d7 0b bd 8c f0 25 be
       0.4158305 -0.026532602 -0.03414139 -0.16205043
